…
 vocab_size=64010, warmup_epochs=5, warmup_lr=1e-06, warmup_steps=-1, weight_decay=0.05, world_size=1, zero_stage=0)
Load 129395 image-text pairs from /nas/common_data/imagenet_100cls/imagenet.train.index.jsonl. 
Load 5000 image-text pairs from /nas/common_data/imagenet_100cls/imagenet.val.index.jsonl. 
model_config = beit3_base_patch16_224_imageclassification
Load ckpt from model/beit3_base_patch16_224_in1k.pth
Load state_dict by model_key = model
Model = BEiT3ForImageClassification(
  (beit3): BEiT3(
    (text_embed): TextEmbedding(64010, 768)
    (vision_embed): VisionEmbedding(
      (proj): Conv2d(3, 768, kernel_size=(16, 16), stride=(16, 16))
    )
    (encoder): Encoder(
      (dropout_module): Dropout(p=0.0, inplace=False)
      (embed_positions): MutliwayEmbedding(
        (A): PositionalEmbedding(199, 768)
        (B): PositionalEmbedding(1024, 768)
      )
      (layers): ModuleList(
        (0): EncoderLayer(
          (self_attn): MultiheadAttention(
            (k_proj): MultiwayNetwork(
              (A): Linear(in_features=768, out_features=768, bias=True)
              (B): Linear(in_features=768, out_features=768, bias=True)
            )
            (v_proj): MultiwayNetwork(
              (A): Linear(in_features=768, out_features=768, bias=True)
              (B): Linear(in_features=768, out_features=768, bias=True)
            )
            (q_proj): MultiwayNetwork(
              (A): Linear(in_features=768, out_features=768, bias=True)
              (B): Linear(in_features=768, out_features=768, bias=True)
            )
            (out_proj): MultiwayNetwork(
              (A): Linear(in_features=768, out_features=768, bias=True)
              (B): Linear(in_features=768, out_features=768, bias=True)
            )
            (inner_attn_ln): MultiwayNetwork(
              (A): LayerNorm((768,), eps=1e-05, elementwise_affine=True)
              (B): LayerNorm((768,), eps=1e-05, elementwise_affine=True)
            )
            (dropout_module): Dropout(p=0.0, inplace=False)
          )
          (self_attn_layer_norm): MultiwayNetwork(
            (A): LayerNorm((768,), eps=1e-05, elementwise_affine=True)
            (B): LayerNorm((768,), eps=1e-05, elementwise_affine=True)
          )
          (dropout_module): Dropout(p=0.0, inplace=False)
          (drop_path): DropPath(p=0.0)
          (ffn): MultiwayNetwork(
            (A): FeedForwardNetwork(
              (activation_dropout_module): Dropout(p=0.0, inplace=False)
              (dropout_module): Dropout(p=0.0, inplace=False)
              (fc1): Linear(in_features=768, out_features=3072, bias=True)
              (fc2): Linear(in_features=3072, out_features=768, bias=True)
              (ffn_layernorm): LayerNorm((3072,), eps=1e-05, elementwise_affine=True)
            )
            (B): FeedForwardNetwork(
              (activation_dropout_module): Dropout(p=0.0, inplace=False)
              (dropout_module): Dropout(p=0.0, inplace=False)
              (fc1): Linear(in_features=768, out_features=3072, bias=True)
              (fc2): Linear(in_features=3072, out_features=768, bias=True)
              (ffn_layernorm): LayerNorm((3072,), eps=1e-05, elementwise_affine=True)
            )
          )
          (final_layer_norm): MultiwayNetwork(
            (A): LayerNorm((768,), eps=1e-05, elementwise_affine=True)
            (B): LayerNorm((768,), eps=1e-05, elementwise_affine=True)
          )
        )
        (1): EncoderLayer(
          (self_attn): MultiheadAttention(
            (k_proj): MultiwayNetwork(
              (A): Linear(in_features=768, out_features=768, bias=True)
              (B): Linear(in_features=768, out_features=768, bias=True)
            )
            (v_proj): MultiwayNetwork(
              (A): Linear(in_features=768, out_features=768, bias=True)
              (B): Linear(in_features=768, out_features=768, bias=True)
            )
            (q_proj): MultiwayNetwork(
              (A): Linear(in_features=768, out_features=768, bias=True)
              (B): Linear(in_features=768, out_features=768, bias=True)
            )
            (out_proj): MultiwayNetwork(
              (A): Linear(in_features=768, out_features=768, bias=True)
              (B): Linear(in_features=768, out_features=768, bias=True)
            )
            (inner_attn_ln): MultiwayNetwork(
              (A): LayerNorm((768,), eps=1e-05, elementwise_affine=True)
              (B): LayerNorm((768,), eps=1e-05, elementwise_affine=True)
            )
            (dropout_module): Dropout(p=0.0, inplace=False)
          )
          (self_attn_layer_norm): MultiwayNetwork(
            (A): LayerNorm((768,), eps=1e-05, elementwise_affine=True)
            (B): LayerNorm((768,), eps=1e-05, elementwise_affine=True)
          )
          (dropout_module): Dropout(p=0.0, inplace=False)
          (drop_path): DropPath(p=0.013636363636363636)
          (ffn): MultiwayNetwork(
            (A): FeedForwardNetwork(
              (activation_dropout_module): Dropout(p=0.0, inplace=False)
              (dropout_module): Dropout(p=0.0, inplace=False)
              (fc1): Linear(in_features=768, out_features=3072, bias=True)
              (fc2): Linear(in_features=3072, out_features=768, bias=True)
              (ffn_layernorm): LayerNorm((3072,), eps=1e-05, elementwise_affine=True)
            )
            (B): FeedForwardNetwork(
              (activation_dropout_module): Dropout(p=0.0, inplace=False)
              (dropout_module): Dropout(p=0.0, inplace=False)
              (fc1): Linear(in_features=768, out_features=3072, bias=True)
              (fc2): Linear(in_features=3072, out_features=768, bias=True)
              (ffn_layernorm): LayerNorm((3072,), eps=1e-05, elementwise_affine=True)
            )
          )
          (final_layer_norm): MultiwayNetwork(
            (A): LayerNorm((768,), eps=1e-05, elementwise_affine=True)
            (B): LayerNorm((768,), eps=1e-05, elementwise_affine=True)
          )
        )
        (2): EncoderLayer(
          (self_attn): MultiheadAttention(
            (k_proj): MultiwayNetwork(
              (A): Linear(in_features=768, out_features=768, bias=True)
              (B): Linear(in_features=768, out_features=768, bias=True)
            )
            (v_proj): MultiwayNetwork(
              (A): Linear(in_features=768, out_features=768, bias=True)
              (B): Linear(in_features=768, out_features=768, bias=True)
            )
            (q_proj): MultiwayNetwork(
              (A): Linear(in_features=768, out_features=768, bias=True)
              (B): Linear(in_features=768, out_features=768, bias=True)
            )
            (out_proj): MultiwayNetwork(
              (A): Linear(in_features=768, out_features=768, bias=True)
              (B): Linear(in_features=768, out_features=768, bias=True)
            )
            (inner_attn_ln): MultiwayNetwork(
              (A): LayerNorm((768,), eps=1e-05, elementwise_affine=True)
              (B): LayerNorm((768,), eps=1e-05, elementwise_affine=True)
            )
            (dropout_module): Dropout(p=0.0, inplace=False)
          )
          (self_attn_layer_norm): MultiwayNetwork(
            (A): LayerNorm((768,), eps=1e-05, elementwise_affine=True)
            (B): LayerNorm((768,), eps=1e-05, elementwise_affine=True)
          )
          (dropout_module): Dropout(p=0.0, inplace=False)
          (drop_path): DropPath(p=0.02727272727272727)
          (ffn): MultiwayNetwork(
            (A): FeedForwardNetwork(
              (activation_dropout_module): Dropout(p=0.0, inplace=False)
              (dropout_module): Dropout(p=0.0, inplace=False)
              (fc1): Linear(in_features=768, out_features=3072, bias=True)
              (fc2): Linear(in_features=3072, out_features=768, bias=True)
              (ffn_layernorm): LayerNorm((3072,), eps=1e-05, elementwise_affine=True)
            )
            (B): FeedForwardNetwork(
              (activation_dropout_module): Dropout(p=0.0, inplace=False)
              (dropout_module): Dropout(p=0.0, inplace=False)
              (fc1): Linear(in_features=768, out_features=3072, bias=True)
              (fc2): Linear(in_features=3072, out_features=768, bias=True)
              (ffn_layernorm): LayerNorm((3072,), eps=1e-05, elementwise_affine=True)
            )
          )
          (final_layer_norm): MultiwayNetwork(
            (A): LayerNorm((768,), eps=1e-05, elementwise_affine=True)
            (B): LayerNorm((768,), eps=1e-05, elementwise_affine=True)
          )
        )
        (3): EncoderLayer(
          (self_attn): MultiheadAttention(
            (k_proj): MultiwayNetwork(
              (A): Linear(in_features=768, out_features=768, bias=True)
              (B): Linear(in_features=768, out_features=768, bias=True)
            )
            (v_proj): MultiwayNetwork(
              (A): Linear(in_features=768, out_features=768, bias=True)
              (B): Linear(in_features=768, out_features=768, bias=True)
            )
            (q_proj): MultiwayNetwork(
              (A): Linear(in_features=768, out_features=768, bias=True)
              (B): Linear(in_features=768, out_features=768, bias=True)
            )
            (out_proj): MultiwayNetwork(
              (A): Linear(in_features=768, out_features=768, bias=True)
              (B): Linear(in_features=768, out_features=768, bias=True)
            )
            (inner_attn_ln): MultiwayNetwork(
              (A): LayerNorm((768,), eps=1e-05, elementwise_affine=True)
              (B): LayerNorm((768,), eps=1e-05, elementwise_affine=True)
            )
            (dropout_module): Dropout(p=0.0, inplace=False)
          )
          (self_attn_layer_norm): MultiwayNetwork(
            (A): LayerNorm((768,), eps=1e-05, elementwise_affine=True)
            (B): LayerNorm((768,), eps=1e-05, elementwise_affine=True)
          )
          (dropout_module): Dropout(p=0.0, inplace=False)
          (drop_path): DropPath(p=0.04090909090909091)
          (ffn): MultiwayNetwork(
            (A): FeedForwardNetwork(
              (activation_dropout_module): Dropout(p=0.0, inplace=False)
              (dropout_module): Dropout(p=0.0, inplace=False)
              (fc1): Linear(in_features=768, out_features=3072, bias=True)
              (fc2): Linear(in_features=3072, out_features=768, bias=True)
              (ffn_layernorm): LayerNorm((3072,), eps=1e-05, elementwise_affine=True)
            )
            (B): FeedForwardNetwork(
              (activation_dropout_module): Dropout(p=0.0, inplace=False)
              (dropout_module): Dropout(p=0.0, inplace=False)
              (fc1): Linear(in_features=768, out_features=3072, bias=True)
              (fc2): Linear(in_features=3072, out_features=768, bias=True)
              (ffn_layernorm): LayerNorm((3072,), eps=1e-05, elementwise_affine=True)
            )
          )
          (final_layer_norm): MultiwayNetwork(
            (A): LayerNorm((768,), eps=1e-05, elementwise_affine=True)
            (B): LayerNorm((768,), eps=1e-05, elementwise_affine=True)
          )
        )
        (4): EncoderLayer(
          (self_attn): MultiheadAttention(
            (k_proj): MultiwayNetwork(
              (A): Linear(in_features=768, out_features=768, bias=True)
              (B): Linear(in_features=768, out_features=768, bias=True)
            )
            (v_proj): MultiwayNetwork(
              (A): Linear(in_features=768, out_features=768, bias=True)
              (B): Linear(in_features=768, out_features=768, bias=True)
            )
            (q_proj): MultiwayNetwork(
              (A): Linear(in_features=768, out_features=768, bias=True)
              (B): Linear(in_features=768, out_features=768, bias=True)
            )
            (out_proj): MultiwayNetwork(
              (A): Linear(in_features=768, out_features=768, bias=True)
              (B): Linear(in_features=768, out_features=768, bias=True)
            )
            (inner_attn_ln): MultiwayNetwork(
              (A): LayerNorm((768,), eps=1e-05, elementwise_affine=True)
              (B): LayerNorm((768,), eps=1e-05, elementwise_affine=True)
            )
            (dropout_module): Dropout(p=0.0, inplace=False)
          )
          (self_attn_layer_norm): MultiwayNetwork(
            (A): LayerNorm((768,), eps=1e-05, elementwise_affine=True)
            (B): LayerNorm((768,), eps=1e-05, elementwise_affine=True)
          )
          (dropout_module): Dropout(p=0.0, inplace=False)
          (drop_path): DropPath(p=0.05454545454545454)
          (ffn): MultiwayNetwork(
            (A): FeedForwardNetwork(
              (activation_dropout_module): Dropout(p=0.0, inplace=False)
              (dropout_module): Dropout(p=0.0, inplace=False)
              (fc1): Linear(in_features=768, out_features=3072, bias=True)
              (fc2): Linear(in_features=3072, out_features=768, bias=True)
              (ffn_layernorm): LayerNorm((3072,), eps=1e-05, elementwise_affine=True)
            )
            (B): FeedForwardNetwork(
              (activation_dropout_module): Dropout(p=0.0, inplace=False)
              (dropout_module): Dropout(p=0.0, inplace=False)
              (fc1): Linear(in_features=768, out_features=3072, bias=True)
              (fc2): Linear(in_features=3072, out_features=768, bias=True)
              (ffn_layernorm): LayerNorm((3072,), eps=1e-05, elementwise_affine=True)
            )
          )
          (final_layer_norm): MultiwayNetwork(
            (A): LayerNorm((768,), eps=1e-05, elementwise_affine=True)
            (B): LayerNorm((768,), eps=1e-05, elementwise_affine=True)
          )
        )
        (5): EncoderLayer(
          (self_attn): MultiheadAttention(
            (k_proj): MultiwayNetwork(
              (A): Linear(in_features=768, out_features=768, bias=True)
              (B): Linear(in_features=768, out_features=768, bias=True)
            )
            (v_proj): MultiwayNetwork(
              (A): Linear(in_features=768, out_features=768, bias=True)
              (B): Linear(in_features=768, out_features=768, bias=True)
            )
            (q_proj): MultiwayNetwork(
              (A): Linear(in_features=768, out_features=768, bias=True)
              (B): Linear(in_features=768, out_features=768, bias=True)
            )
            (out_proj): MultiwayNetwork(
              (A): Linear(in_features=768, out_features=768, bias=True)
              (B): Linear(in_features=768, out_features=768, bias=True)
            )
            (inner_attn_ln): MultiwayNetwork(
              (A): LayerNorm((768,), eps=1e-05, elementwise_affine=True)
              (B): LayerNorm((768,), eps=1e-05, elementwise_affine=True)
            )
            (dropout_module): Dropout(p=0.0, inplace=False)
          )
          (self_attn_layer_norm): MultiwayNetwork(
            (A): LayerNorm((768,), eps=1e-05, elementwise_affine=True)
            (B): LayerNorm((768,), eps=1e-05, elementwise_affine=True)
          )
          (dropout_module): Dropout(p=0.0, inplace=False)
          (drop_path): DropPath(p=0.06818181818181818)
          (ffn): MultiwayNetwork(
            (A): FeedForwardNetwork(
              (activation_dropout_module): Dropout(p=0.0, inplace=False)
              (dropout_module): Dropout(p=0.0, inplace=False)
              (fc1): Linear(in_features=768, out_features=3072, bias=True)
              (fc2): Linear(in_features=3072, out_features=768, bias=True)
              (ffn_layernorm): LayerNorm((3072,), eps=1e-05, elementwise_affine=True)
            )
            (B): FeedForwardNetwork(
              (activation_dropout_module): Dropout(p=0.0, inplace=False)
              (dropout_module): Dropout(p=0.0, inplace=False)
              (fc1): Linear(in_features=768, out_features=3072, bias=True)
              (fc2): Linear(in_features=3072, out_features=768, bias=True)
              (ffn_layernorm): LayerNorm((3072,), eps=1e-05, elementwise_affine=True)
            )
          )
          (final_layer_norm): MultiwayNetwork(
            (A): LayerNorm((768,), eps=1e-05, elementwise_affine=True)
            (B): LayerNorm((768,), eps=1e-05, elementwise_affine=True)
          )
        )
        (6): EncoderLayer(
          (self_attn): MultiheadAttention(
            (k_proj): MultiwayNetwork(
              (A): Linear(in_features=768, out_features=768, bias=True)
              (B): Linear(in_features=768, out_features=768, bias=True)
            )
            (v_proj): MultiwayNetwork(
              (A): Linear(in_features=768, out_features=768, bias=True)
              (B): Linear(in_features=768, out_features=768, bias=True)
            )
            (q_proj): MultiwayNetwork(
              (A): Linear(in_features=768, out_features=768, bias=True)
              (B): Linear(in_features=768, out_features=768, bias=True)
            )
            (out_proj): MultiwayNetwork(
              (A): Linear(in_features=768, out_features=768, bias=True)
              (B): Linear(in_features=768, out_features=768, bias=True)
            )
            (inner_attn_ln): MultiwayNetwork(
              (A): LayerNorm((768,), eps=1e-05, elementwise_affine=True)
              (B): LayerNorm((768,), eps=1e-05, elementwise_affine=True)
            )
            (dropout_module): Dropout(p=0.0, inplace=False)
          )
          (self_attn_layer_norm): MultiwayNetwork(
            (A): LayerNorm((768,), eps=1e-05, elementwise_affine=True)
            (B): LayerNorm((768,), eps=1e-05, elementwise_affine=True)
          )
          (dropout_module): Dropout(p=0.0, inplace=False)
          (drop_path): DropPath(p=0.08181818181818182)
          (ffn): MultiwayNetwork(
            (A): FeedForwardNetwork(
              (activation_dropout_module): Dropout(p=0.0, inplace=False)
              (dropout_module): Dropout(p=0.0, inplace=False)
              (fc1): Linear(in_features=768, out_features=3072, bias=True)
              (fc2): Linear(in_features=3072, out_features=768, bias=True)
              (ffn_layernorm): LayerNorm((3072,), eps=1e-05, elementwise_affine=True)
            )
            (B): FeedForwardNetwork(
              (activation_dropout_module): Dropout(p=0.0, inplace=False)
              (dropout_module): Dropout(p=0.0, inplace=False)
              (fc1): Linear(in_features=768, out_features=3072, bias=True)
              (fc2): Linear(in_features=3072, out_features=768, bias=True)
              (ffn_layernorm): LayerNorm((3072,), eps=1e-05, elementwise_affine=True)
            )
          )
          (final_layer_norm): MultiwayNetwork(
            (A): LayerNorm((768,), eps=1e-05, elementwise_affine=True)
            (B): LayerNorm((768,), eps=1e-05, elementwise_affine=True)
          )
        )
        (7): EncoderLayer(
          (self_attn): MultiheadAttention(
            (k_proj): MultiwayNetwork(
              (A): Linear(in_features=768, out_features=768, bias=True)
              (B): Linear(in_features=768, out_features=768, bias=True)
            )
            (v_proj): MultiwayNetwork(
              (A): Linear(in_features=768, out_features=768, bias=True)
              (B): Linear(in_features=768, out_features=768, bias=True)
            )
            (q_proj): MultiwayNetwork(
              (A): Linear(in_features=768, out_features=768, bias=True)
              (B): Linear(in_features=768, out_features=768, bias=True)
            )
            (out_proj): MultiwayNetwork(
              (A): Linear(in_features=768, out_features=768, bias=True)
              (B): Linear(in_features=768, out_features=768, bias=True)
            )
            (inner_attn_ln): MultiwayNetwork(
              (A): LayerNorm((768,), eps=1e-05, elementwise_affine=True)
              (B): LayerNorm((768,), eps=1e-05, elementwise_affine=True)
            )
            (dropout_module): Dropout(p=0.0, inplace=False)
          )
          (self_attn_layer_norm): MultiwayNetwork(
            (A): LayerNorm((768,), eps=1e-05, elementwise_affine=True)
            (B): LayerNorm((768,), eps=1e-05, elementwise_affine=True)
          )
          (dropout_module): Dropout(p=0.0, inplace=False)
          (drop_path): DropPath(p=0.09545454545454544)
          (ffn): MultiwayNetwork(
            (A): FeedForwardNetwork(
              (activation_dropout_module): Dropout(p=0.0, inplace=False)
              (dropout_module): Dropout(p=0.0, inplace=False)
              (fc1): Linear(in_features=768, out_features=3072, bias=True)
              (fc2): Linear(in_features=3072, out_features=768, bias=True)
              (ffn_layernorm): LayerNorm((3072,), eps=1e-05, elementwise_affine=True)
            )
            (B): FeedForwardNetwork(
              (activation_dropout_module): Dropout(p=0.0, inplace=False)
              (dropout_module): Dropout(p=0.0, inplace=False)
              (fc1): Linear(in_features=768, out_features=3072, bias=True)
              (fc2): Linear(in_features=3072, out_features=768, bias=True)
              (ffn_layernorm): LayerNorm((3072,), eps=1e-05, elementwise_affine=True)
            )
          )
          (final_layer_norm): MultiwayNetwork(
            (A): LayerNorm((768,), eps=1e-05, elementwise_affine=True)
            (B): LayerNorm((768,), eps=1e-05, elementwise_affine=True)
          )
        )
        (8): EncoderLayer(
          (self_attn): MultiheadAttention(
            (k_proj): MultiwayNetwork(
              (A): Linear(in_features=768, out_features=768, bias=True)
              (B): Linear(in_features=768, out_features=768, bias=True)
            )
            (v_proj): MultiwayNetwork(
              (A): Linear(in_features=768, out_features=768, bias=True)
              (B): Linear(in_features=768, out_features=768, bias=True)
            )
            (q_proj): MultiwayNetwork(
              (A): Linear(in_features=768, out_features=768, bias=True)
              (B): Linear(in_features=768, out_features=768, bias=True)
            )
            (out_proj): MultiwayNetwork(
              (A): Linear(in_features=768, out_features=768, bias=True)
              (B): Linear(in_features=768, out_features=768, bias=True)
            )
            (inner_attn_ln): MultiwayNetwork(
              (A): LayerNorm((768,), eps=1e-05, elementwise_affine=True)
              (B): LayerNorm((768,), eps=1e-05, elementwise_affine=True)
            )
            (dropout_module): Dropout(p=0.0, inplace=False)
          )
          (self_attn_layer_norm): MultiwayNetwork(
            (A): LayerNorm((768,), eps=1e-05, elementwise_affine=True)
            (B): LayerNorm((768,), eps=1e-05, elementwise_affine=True)
          )
          (dropout_module): Dropout(p=0.0, inplace=False)
          (drop_path): DropPath(p=0.10909090909090909)
          (ffn): MultiwayNetwork(
            (A): FeedForwardNetwork(
              (activation_dropout_module): Dropout(p=0.0, inplace=False)
              (dropout_module): Dropout(p=0.0, inplace=False)
              (fc1): Linear(in_features=768, out_features=3072, bias=True)
              (fc2): Linear(in_features=3072, out_features=768, bias=True)
              (ffn_layernorm): LayerNorm((3072,), eps=1e-05, elementwise_affine=True)
            )
            (B): FeedForwardNetwork(
              (activation_dropout_module): Dropout(p=0.0, inplace=False)
              (dropout_module): Dropout(p=0.0, inplace=False)
              (fc1): Linear(in_features=768, out_features=3072, bias=True)
              (fc2): Linear(in_features=3072, out_features=768, bias=True)
              (ffn_layernorm): LayerNorm((3072,), eps=1e-05, elementwise_affine=True)
            )
          )
          (final_layer_norm): MultiwayNetwork(
            (A): LayerNorm((768,), eps=1e-05, elementwise_affine=True)
            (B): LayerNorm((768,), eps=1e-05, elementwise_affine=True)
          )
        )
        (9): EncoderLayer(
          (self_attn): MultiheadAttention(
            (k_proj): MultiwayNetwork(
              (A): Linear(in_features=768, out_features=768, bias=True)
              (B): Linear(in_features=768, out_features=768, bias=True)
            )
            (v_proj): MultiwayNetwork(
              (A): Linear(in_features=768, out_features=768, bias=True)
              (B): Linear(in_features=768, out_features=768, bias=True)
            )
            (q_proj): MultiwayNetwork(
              (A): Linear(in_features=768, out_features=768, bias=True)
              (B): Linear(in_features=768, out_features=768, bias=True)
            )
            (out_proj): MultiwayNetwork(
              (A): Linear(in_features=768, out_features=768, bias=True)
              (B): Linear(in_features=768, out_features=768, bias=True)
            )
            (inner_attn_ln): MultiwayNetwork(
              (A): LayerNorm((768,), eps=1e-05, elementwise_affine=True)
              (B): LayerNorm((768,), eps=1e-05, elementwise_affine=True)
            )
            (dropout_module): Dropout(p=0.0, inplace=False)
          )
          (self_attn_layer_norm): MultiwayNetwork(
            (A): LayerNorm((768,), eps=1e-05, elementwise_affine=True)
            (B): LayerNorm((768,), eps=1e-05, elementwise_affine=True)
          )
          (dropout_module): Dropout(p=0.0, inplace=False)
          (drop_path): DropPath(p=0.12272727272727273)
          (ffn): MultiwayNetwork(
            (A): FeedForwardNetwork(
              (activation_dropout_module): Dropout(p=0.0, inplace=False)
              (dropout_module): Dropout(p=0.0, inplace=False)
              (fc1): Linear(in_features=768, out_features=3072, bias=True)
              (fc2): Linear(in_features=3072, out_features=768, bias=True)
              (ffn_layernorm): LayerNorm((3072,), eps=1e-05, elementwise_affine=True)
            )
            (B): FeedForwardNetwork(
              (activation_dropout_module): Dropout(p=0.0, inplace=False)
              (dropout_module): Dropout(p=0.0, inplace=False)
              (fc1): Linear(in_features=768, out_features=3072, bias=True)
              (fc2): Linear(in_features=3072, out_features=768, bias=True)
              (ffn_layernorm): LayerNorm((3072,), eps=1e-05, elementwise_affine=True)
            )
          )
          (final_layer_norm): MultiwayNetwork(
            (A): LayerNorm((768,), eps=1e-05, elementwise_affine=True)
            (B): LayerNorm((768,), eps=1e-05, elementwise_affine=True)
          )
        )
        (10): EncoderLayer(
          (self_attn): MultiheadAttention(
            (k_proj): MultiwayNetwork(
              (A): Linear(in_features=768, out_features=768, bias=True)
              (B): Linear(in_features=768, out_features=768, bias=True)
            )
            (v_proj): MultiwayNetwork(
              (A): Linear(in_features=768, out_features=768, bias=True)
              (B): Linear(in_features=768, out_features=768, bias=True)
            )
            (q_proj): MultiwayNetwork(
              (A): Linear(in_features=768, out_features=768, bias=True)
              (B): Linear(in_features=768, out_features=768, bias=True)
            )
            (out_proj): MultiwayNetwork(
              (A): Linear(in_features=768, out_features=768, bias=True)
              (B): Linear(in_features=768, out_features=768, bias=True)
            )
            (inner_attn_ln): MultiwayNetwork(
              (A): LayerNorm((768,), eps=1e-05, elementwise_affine=True)
              (B): LayerNorm((768,), eps=1e-05, elementwise_affine=True)
            )
            (dropout_module): Dropout(p=0.0, inplace=False)
          )
          (self_attn_layer_norm): MultiwayNetwork(
            (A): LayerNorm((768,), eps=1e-05, elementwise_affine=True)
            (B): LayerNorm((768,), eps=1e-05, elementwise_affine=True)
          )
          (dropout_module): Dropout(p=0.0, inplace=False)
          (drop_path): DropPath(p=0.13636363636363635)
          (ffn): MultiwayNetwork(
            (A): FeedForwardNetwork(
              (activation_dropout_module): Dropout(p=0.0, inplace=False)
              (dropout_module): Dropout(p=0.0, inplace=False)
              (fc1): Linear(in_features=768, out_features=3072, bias=True)
              (fc2): Linear(in_features=3072, out_features=768, bias=True)
              (ffn_layernorm): LayerNorm((3072,), eps=1e-05, elementwise_affine=True)
            )
            (B): FeedForwardNetwork(
              (activation_dropout_module): Dropout(p=0.0, inplace=False)
              (dropout_module): Dropout(p=0.0, inplace=False)
              (fc1): Linear(in_features=768, out_features=3072, bias=True)
              (fc2): Linear(in_features=3072, out_features=768, bias=True)
              (ffn_layernorm): LayerNorm((3072,), eps=1e-05, elementwise_affine=True)
            )
          )
          (final_layer_norm): MultiwayNetwork(
            (A): LayerNorm((768,), eps=1e-05, elementwise_affine=True)
            (B): LayerNorm((768,), eps=1e-05, elementwise_affine=True)
          )
        )
        (11): EncoderLayer(
          (self_attn): MultiheadAttention(
            (k_proj): MultiwayNetwork(
              (A): Linear(in_features=768, out_features=768, bias=True)
              (B): Linear(in_features=768, out_features=768, bias=True)
            )
            (v_proj): MultiwayNetwork(
              (A): Linear(in_features=768, out_features=768, bias=True)
              (B): Linear(in_features=768, out_features=768, bias=True)
            )
            (q_proj): MultiwayNetwork(
              (A): Linear(in_features=768, out_features=768, bias=True)
              (B): Linear(in_features=768, out_features=768, bias=True)
            )
            (out_proj): MultiwayNetwork(
              (A): Linear(in_features=768, out_features=768, bias=True)
              (B): Linear(in_features=768, out_features=768, bias=True)
            )
            (inner_attn_ln): MultiwayNetwork(
              (A): LayerNorm((768,), eps=1e-05, elementwise_affine=True)
              (B): LayerNorm((768,), eps=1e-05, elementwise_affine=True)
            )
            (dropout_module): Dropout(p=0.0, inplace=False)
          )
          (self_attn_layer_norm): MultiwayNetwork(
            (A): LayerNorm((768,), eps=1e-05, elementwise_affine=True)
            (B): LayerNorm((768,), eps=1e-05, elementwise_affine=True)
          )
          (dropout_module): Dropout(p=0.0, inplace=False)
          (drop_path): DropPath(p=0.15)
          (ffn): MultiwayNetwork(
            (A): FeedForwardNetwork(
              (activation_dropout_module): Dropout(p=0.0, inplace=False)
              (dropout_module): Dropout(p=0.0, inplace=False)
              (fc1): Linear(in_features=768, out_features=3072, bias=True)
              (fc2): Linear(in_features=3072, out_features=768, bias=True)
              (ffn_layernorm): LayerNorm((3072,), eps=1e-05, elementwise_affine=True)
            )
            (B): FeedForwardNetwork(
              (activation_dropout_module): Dropout(p=0.0, inplace=False)
              (dropout_module): Dropout(p=0.0, inplace=False)
              (fc1): Linear(in_features=768, out_features=3072, bias=True)
              (fc2): Linear(in_features=3072, out_features=768, bias=True)
              (ffn_layernorm): LayerNorm((3072,), eps=1e-05, elementwise_affine=True)
            )
          )
          (final_layer_norm): MultiwayNetwork(
            (A): LayerNorm((768,), eps=1e-05, elementwise_affine=True)
            (B): LayerNorm((768,), eps=1e-05, elementwise_affine=True)
          )
        )
      )
    )
  )
  (fc_norm): LayerNorm((768,), eps=1e-05, elementwise_affine=True)
  (head): Linear(in_features=768, out_features=1000, bias=True)
)
number of params: 221754856
LR = 0.00070000
Batch size = 128
Update frequent = 1
Number of training examples = 129395
Number of training training per epoch = 1010
Assigned values = [0.003697205891018715, 0.005688009063105715, 0.008750783174008792, 0.013462743344628911, 0.02071191283789063, 0.03186448128906251, 0.049022278906250015, 0.07541889062500001, 0.11602906250000002, 0.17850625000000003, 0.274625, 0.42250000000000004, 0.65, 1.0]
…
